Model: "sequential"
_________________________________________________________________
Layer (type)                 Output Shape              Param #   
=================================================================
conv2d (Conv2D)              (None, 266, 266, 32)      896       
_________________________________________________________________
activation (Activation)      (None, 266, 266, 32)      0         
_________________________________________________________________
max_pooling2d (MaxPooling2D) (None, 133, 133, 32)      0         
_________________________________________________________________
conv2d_1 (Conv2D)            (None, 133, 133, 50)      40050     
_________________________________________________________________
activation_1 (Activation)    (None, 133, 133, 50)      0         
_________________________________________________________________
max_pooling2d_1 (MaxPooling2 (None, 66, 66, 50)        0         
_________________________________________________________________
flatten (Flatten)            (None, 217800)            0         
_________________________________________________________________
dense (Dense)                (None, 512)               111514112 
_________________________________________________________________
activation_2 (Activation)    (None, 512)               0         
_________________________________________________________________
dropout (Dropout)            (None, 512)               0         
_________________________________________________________________
dense_1 (Dense)              (None, 256)               131328    
_________________________________________________________________
activation_3 (Activation)    (None, 256)               0         
_________________________________________________________________
dense_2 (Dense)              (None, 128)               32896     
_________________________________________________________________
activation_4 (Activation)    (None, 128)               0         
_________________________________________________________________
dense_3 (Dense)              (None, 10)                1290      
_________________________________________________________________
activation_5 (Activation)    (None, 10)                0         
=================================================================
Total params: 111,720,572
Trainable params: 111,720,572
Non-trainable params: 0
_________________________________________________________________
